…
call with args: Namespace(base_lr=0.0001, final_lr=1e-06, weight_decay=0.1, clip_gradient=0.1, warm_lr=1e-06, warm_lr_iters=1000, pad_id=-1, dataset='objaverse', augment=False, n_discrete_size=128, n_max_triangles=800, model='mesh_xl', llm='mesh-xl/mesh-xl-125m', text_condition=None, image_condition=None, pretrained_weights=None, dataset_num_workers=1, batchsize_per_gpu=1, start_epoch=0, max_epoch=100, start_eval_after=-1, eval_every_iteration=4000, seed=0, test_only=False, sample_rounds=100, criterion=None, test_ckpt='', checkpoint_dir='./checkpoints', save_every=20000, log_every=10)
MeshXL(
  (tokenizer): MeshTokenizer()
  (transformer): OPTForCausalLM(
    (model): OPTModel(
      (decoder): OPTDecoder(
        (embed_tokens): Embedding(131, 256, padding_idx=130)
        (embed_positions): OPTLearnedPositionalEmbedding(8194, 256)
        (final_layer_norm): LayerNorm((256,), eps=1e-05, elementwise_affine=True)
        (layers): ModuleList(
          (0-7): 8 x OPTDecoderLayer(
            (self_attn): OPTAttention(
              (k_proj): Linear(in_features=256, out_features=256, bias=True)
              (v_proj): Linear(in_features=256, out_features=256, bias=True)
              (q_proj): Linear(in_features=256, out_features=256, bias=True)
              (out_proj): Linear(in_features=256, out_features=256, bias=True)
            )
            (activation_fn): ReLU()
            (self_attn_layer_norm): LayerNorm((256,), eps=1e-05, elementwise_affine=True)
            (fc1): Linear(in_features=256, out_features=3072, bias=True)
            (fc2): Linear(in_features=3072, out_features=256, bias=True)
            (final_layer_norm): LayerNorm((256,), eps=1e-05, elementwise_affine=True)
          )
        )
      )
    )
    (lm_head): Linear(in_features=256, out_features=131, bias=False)
  )
)
Epoch [0/100]; Iter [0/51500]; loss 4.9151; gen_loss 4.9151; LR 1.00e-06; Iter time 0.70s; ETA 10:00:24; Mem 18644.09MB
Epoch [0/100]; Iter [10/51500]; loss 4.8532; gen_loss 4.8532; LR 1.99e-06; Iter time 0.36s; ETA 5:11:09; Mem 18775.15MB
Epoch [0/100]; Iter [20/51500]; loss 4.8543; gen_loss 4.8543; LR 2.98e-06; Iter time 0.36s; ETA 5:11:15; Mem 18775.15MB
…
