…
call with args: Namespace(base_lr=0.0001, final_lr=1e-06, weight_decay=0.1, clip_gradient=0.1, warm_lr=1e-06, warm_lr_iters=1000, pad_id=-1, dataset='shapenet_lamp', augment=False, n_discrete_size=128, n_max_triangles=800, model='mesh_xl', llm='mesh-xl/mesh-xl-125m', text_condition=None, image_condition=None, pretrained_weights=None, dataset_num_workers=0, batchsize_per_gpu=1, start_epoch=0, max_epoch=100, start_eval_after=-1, eval_every_iteration=4000, seed=0, finetune=True, test_only=False, sample_rounds=100, criterion=None, test_ckpt='', checkpoint_dir='./output-finetune-mesh-xl', save_every=20000, log_every=10)
MeshXL(
  (tokenizer): MeshTokenizer()
  (transformer): OPTForCausalLM(
    (model): OPTModel(
      (decoder): OPTDecoder(
        (embed_tokens): Embedding(131, 512, padding_idx=1)
        (embed_positions): OPTLearnedPositionalEmbedding(7302, 512)
        (final_layer_norm): LayerNorm((512,), eps=1e-05, elementwise_affine=True)
        (layers): ModuleList(
          (0-5): 6 x OPTDecoderLayer(
            (self_attn): OPTAttention(
              (k_proj): Linear(in_features=512, out_features=512, bias=True)
              (v_proj): Linear(in_features=512, out_features=512, bias=True)
              (q_proj): Linear(in_features=512, out_features=512, bias=True)
              (out_proj): Linear(in_features=512, out_features=512, bias=True)
            )
            (activation_fn): ReLU()
            (self_attn_layer_norm): LayerNorm((512,), eps=1e-05, elementwise_affine=True)
            (fc1): Linear(in_features=512, out_features=2048, bias=True)
            (fc2): Linear(in_features=2048, out_features=512, bias=True)
            (final_layer_norm): LayerNorm((512,), eps=1e-05, elementwise_affine=True)
          )
        )
      )
    )
    (lm_head): Linear(in_features=512, out_features=131, bias=False)
  )
)
Epoch [0/100]; Iter [0/56500]; loss 4.9258; gen_loss 4.9258; LR 1.00e-06; Iter time 0.44s; ETA 6:52:16; Mem 14467.61MB
Epoch [0/100]; Iter [10/56500]; loss 4.9654; gen_loss 4.9654; LR 1.99e-06; Iter time 0.26s; ETA 4:05:23; Mem 14467.61MB
Epoch [0/100]; Iter [20/56500]; loss 4.9346; gen_loss 4.9346; LR 2.98e-06; Iter time 0.26s; ETA 4:05:22; Mem 14467.61MB
…
call with args: Namespace(base_lr=0.0001, final_lr=1e-06, weight_decay=0.1, clip_gradient=0.1, warm_lr=1e-06, warm_lr_iters=1000, pad_id=-1, dataset='shapenet_lamp', augment=False, n_discrete_size=128, n_max_triangles=800, model='mesh_xl', llm='CH3COOK/mesh-xl-125m', text_condition=None, image_condition=None, pretrained_weights=None, dataset_num_workers=0, batchsize_per_gpu=1, start_epoch=0, max_epoch=100, start_eval_after=-1, eval_every_iteration=4000, seed=0, finetune=True, test_only=False, sample_rounds=100, criterion=None, test_ckpt='', checkpoint_dir='./output-finetune-mesh-xl', save_every=20000, log_every=10)
MeshXL(
  (tokenizer): MeshTokenizer()
  (transformer): OPTForCausalLM(
    (model): OPTModel(
      (decoder): OPTDecoder(
        (embed_tokens): Embedding(131, 768, padding_idx=1)
        (embed_positions): OPTLearnedPositionalEmbedding(8194, 768)
        (final_layer_norm): LayerNorm((768,), eps=1e-05, elementwise_affine=True)
        (layers): ModuleList(
          (0-11): 12 x OPTDecoderLayer(
            (self_attn): OPTAttention(
              (k_proj): Linear(in_features=768, out_features=768, bias=True)
              (v_proj): Linear(in_features=768, out_features=768, bias=True)
              (q_proj): Linear(in_features=768, out_features=768, bias=True)
              (out_proj): Linear(in_features=768, out_features=768, bias=True)
            )
            (activation_fn): ReLU()
            (self_attn_layer_norm): LayerNorm((768,), eps=1e-05, elementwise_affine=True)
            (fc1): Linear(in_features=768, out_features=3072, bias=True)
            (fc2): Linear(in_features=3072, out_features=768, bias=True)
            (final_layer_norm): LayerNorm((768,), eps=1e-05, elementwise_affine=True)
          )
        )
      )
    )
    (lm_head): Linear(in_features=768, out_features=131, bias=False)
  )
)
	[train]	transformer.model.decoder.embed_tokens.weight:	torch.Size([131, 768])
	[eval]	transformer.model.decoder.embed_positions.weight:	torch.Size([8194, 768])
	[eval]	transformer.model.decoder.final_layer_norm.weight:	torch.Size([768])
	[eval]	transformer.model.decoder.final_layer_norm.bias:	torch.Size([768])
	[eval]	transformer.model.decoder.layers.0.self_attn.k_proj.weight:	torch.Size([768, 768])
…
