…
call with args: Namespace(base_lr=0.0001, final_lr=1e-06, weight_decay=0.1, clip_gradient=0.1, warm_lr=1e-06, warm_lr_iters=1000, pad_id=-1, dataset='objaverse', augment=False, n_discrete_size=128, n_max_triangles=800, model='mesh_xl', llm='mesh-xl/mesh-xl-125m', text_condition=None, image_condition=None, pretrained_weights=None, dataset_num_workers=8, batchsize_per_gpu=1, start_epoch=0, max_epoch=100, start_eval_after=-1, eval_every_iteration=4000, seed=0, test_only=False, sample_rounds=100, criterion=None, test_ckpt='', checkpoint_dir='./checkpoints', save_every=20000, log_every=10)
FullyShardedDataParallel(
  (_fsdp_wrapped_module): MeshXL(
    (tokenizer): MeshTokenizer()
    (transformer): OPTForCausalLM(
      (model): OPTModel(
        (decoder): OPTDecoder(
          (embed_tokens): Embedding(131, 256, padding_idx=130)
          (embed_positions): OPTLearnedPositionalEmbedding(8194, 256)
          (final_layer_norm): LayerNorm((256,), eps=1e-05, elementwise_affine=True)
          (layers): ModuleList(
            (0-7): 8 x FullyShardedDataParallel(
              (_fsdp_wrapped_module): CheckpointWrapper(
                (_checkpoint_wrapped_module): OPTDecoderLayer(
                  (self_attn): OPTAttention(
                    (k_proj): Linear(in_features=256, out_features=256, bias=True)
                    (v_proj): Linear(in_features=256, out_features=256, bias=True)
                    (q_proj): Linear(in_features=256, out_features=256, bias=True)
                    (out_proj): Linear(in_features=256, out_features=256, bias=True)
                  )
                  (activation_fn): ReLU()
                  (self_attn_layer_norm): LayerNorm((256,), eps=1e-05, elementwise_affine=True)
                  (fc1): Linear(in_features=256, out_features=1024, bias=True)
                  (fc2): Linear(in_features=1024, out_features=256, bias=True)
                  (final_layer_norm): LayerNorm((256,), eps=1e-05, elementwise_affine=True)
                )
              )
            )
          )
        )
      )
      (lm_head): Linear(in_features=256, out_features=131, bias=False)
    )
  )
)
Loss: 4.809508323669434
First 5 weights of embed_tokens: tensor([[ … device='cuda:0')
Epoch [0/100]; Iter [0/12800]; loss 4.8095; gen_loss 4.8095; LR 1.00e-06; Iter time 1.40s; ETA 4:57:42; Mem 4290.41MB
Loss: 4.932173728942871
First 5 weights of embed_tokens: tensor([[ … device='cuda:0')
Loss: 5.031808376312256
First 5 weights of embed_tokens: tensor([[ … device='cuda:0')
…
