Loading train data with 515 files.
Loading test data with 129 files.
131
MeshXL(
  (tokenizer): MeshTokenizer()
  (transformer): OPTForCausalLM(
    (model): OPTModel(
      (decoder): OPTDecoder(
        (embed_tokens): Embedding(131, 256, padding_idx=130)
        (embed_positions): OPTLearnedPositionalEmbedding(8194, 256)
        (final_layer_norm): LayerNorm((256,), eps=1e-05, elementwise_affine=True)
        (layers): ModuleList(
          (0-5): 6 x OPTDecoderLayer(
            (self_attn): OPTAttention(
              (k_proj): Linear(in_features=256, out_features=256, bias=True)
              (v_proj): Linear(in_features=256, out_features=256, bias=True)
              (q_proj): Linear(in_features=256, out_features=256, bias=True)
              (out_proj): Linear(in_features=256, out_features=256, bias=True)
            )
            (activation_fn): ReLU()
            (self_attn_layer_norm): LayerNorm((256,), eps=1e-05, elementwise_affine=True)
            (fc1): Linear(in_features=256, out_features=1024, bias=True)
            (fc2): Linear(in_features=1024, out_features=256, bias=True)
            (final_layer_norm): LayerNorm((256,), eps=1e-05, elementwise_affine=True)
          )
        )
      )
    )
    (lm_head): Linear(in_features=256, out_features=131, bias=False)
  )
)
/root/MeshXL/main.py:246: FutureWarning: You are using `torch.load` with `weights_only=False` (the current default value), which uses the default pickle module implicitly. It is possible to construct malicious pickle data which will execute arbitrary code during unpickling (See https://github.com/pytorch/pytorch/blob/main/SECURITY.md#untrusted-m
…
