…
call with args: Namespace(base_lr=0.0001, final_lr=1e-06, weight_decay=0.1, clip_gradient=0.1, warm_lr=1e-06, warm_lr_iters=1000, pad_id=-1, dataset='shapenet_lamp', augment=False, n_discrete_size=128, n_max_triangles=800, model='mesh_xl_mtp', llm='mesh-xl/mesh-xl-125m', text_condition=None, image_condition=None, pretrained_weights=None, dataset_num_workers=1, batchsize_per_gpu=1, start_epoch=0, max_epoch=100, start_eval_after=-1, eval_every_iteration=4000, seed=0, train_from_scratch=True, test_only=False, sample_rounds=100, criterion=None, test_ckpt='', checkpoint_dir='./checkpoints', save_every=20000, log_every=10)
MTPMeshXL(
  (tokenizer): MeshTokenizer()
  (trunk): OPTModel(
    (decoder): OPTDecoder(
      (embed_tokens): Embedding(131, 256, padding_idx=130)
      (embed_positions): OPTLearnedPositionalEmbedding(8002, 256)
      (final_layer_norm): LayerNorm((256,), eps=1e-05, elementwise_affine=True)
      (layers): ModuleList(
        (0-3): 4 x OPTDecoderLayer(
          (self_attn): OPTAttention(
            (k_proj): Linear(in_features=256, out_features=256, bias=True)
            (v_proj): Linear(in_features=256, out_features=256, bias=True)
            (q_proj): Linear(in_features=256, out_features=256, bias=True)
            (out_proj): Linear(in_features=256, out_features=256, bias=True)
          )
          (activation_fn): ReLU()
          (self_attn_layer_norm): LayerNorm((256,), eps=1e-05, elementwise_affine=True)
          (fc1): Linear(in_features=256, out_features=1024, bias=True)
          (fc2): Linear(in_features=1024, out_features=256, bias=True)
          (final_layer_norm): LayerNorm((256,), eps=1e-05, elementwise_affine=True)
        )
      )
    )
  )
  (heads): ModuleList(
    (0-1): 2 x Sequential(
      (0): TransformerEncoderLayer(
        (self_attn): MultiheadAttention(
          (out_proj): NonDynamicallyQuantizableLinear(in_features=256, out_features=256, bias=True)
        )
        (linear1): Linear(in_features=256, out_features=1024, bias=True)
        (dropout): Dropout(p=0.1, inplace=False)
        (linear2): Linear(in_features=1024, out_features=256, bias=True)
        (norm1): LayerNorm((256,), eps=1e-05, elementwise_affine=True)
        (norm2): LayerNorm((256,), eps=1e-05, elementwise_affine=True)
        (dropout1): Dropout(p=0.1, inplace=False)
        (dropout2): Dropout(p=0.1, inplace=False)
      )
      (1): LayerNorm((256,), eps=1e-05, elementwise_affine=True)
      (2): Linear(in_features=256, out_features=131, bias=True)
    )
  )
  (offset_embeddings): Embedding(2, 256)
)
Epoch [0/100]; Iter [0/56500]; loss 4.8782; LR 1.00e-06; Iter time 1.02s; ETA 15:59:25; Mem 10171.19MB
Epoch [0/100]; Iter [10/56500]; loss 4.9294; LR 1.99e-06; Iter time 0.17s; ETA 2:44:12; Mem 10225.59MB
Epoch [0/100]; Iter [20/56500]; loss 4.9149; LR 2.98e-06; Iter time 0.17s; ETA 2:44:10; Mem 10225.59MB
Epoch [0/100]; Iter [30/56500]; loss 4.8851; LR 3.97e-06; Iter time 0.17s; ETA 2:44:06; Mem 10225.59MB
…
call with args: Namespace(base_lr=0.0001, final_lr=1e-06, weight_decay=0.1, clip_gradient=0.1, warm_lr=1e-06, warm_lr_iters=1000, pad_id=-1, dataset='shapenet_lamp', augment=False, n_discrete_size=128, n_max_triangles=800, model='mesh_xl', llm='mesh-xl/mesh-xl-125m', text_condition=None, image_condition=None, pretrained_weights=None, dataset_num_workers=1, batchsize_per_gpu=1, start_epoch=0, max_epoch=100, start_eval_after=-1, eval_every_iteration=4000, seed=0, train_from_scratch=True, test_only=False, sample_rounds=100, criterion=None, test_ckpt='', checkpoint_dir='./checkpoints', save_every=20000, log_every=10)
MeshXL(
  (tokenizer): MeshTokenizer()
  (transformer): OPTForCausalLM(
    (model): OPTModel(
      (decoder): OPTDecoder(
        (embed_tokens): Embedding(131, 256, padding_idx=130)
        (embed_positions): OPTLearnedPositionalEmbedding(8194, 256)
        (final_layer_norm): LayerNorm((256,), eps=1e-05, elementwise_affine=True)
        (layers): ModuleList(
          (0-5): 6 x OPTDecoderLayer(
            (self_attn): OPTAttention(
              (k_proj): Linear(in_features=256, out_features=256, bias=True)
              (v_proj): Linear(in_features=256, out_features=256, bias=True)
              (q_proj): Linear(in_features=256, out_features=256, bias=True)
              (out_proj): Linear(in_features=256, out_features=256, bias=True)
            )
            (activation_fn): ReLU()
            (self_attn_layer_norm): LayerNorm((256,), eps=1e-05, elementwise_affine=True)
            (fc1): Linear(in_features=256, out_features=1024, bias=True)
            (fc2): Linear(in_features=1024, out_features=256, bias=True)
            (final_layer_norm): LayerNorm((256,), eps=1e-05, elementwise_affine=True)
          )
        )
      )
    )
    (lm_head): Linear(in_features=256, out_features=131, bias=False)
  )
)
Epoch [0/100]; Iter [0/56500]; loss 4.9801; gen_loss 4.9801; LR 1.00e-06; Iter time 0.64s; ETA 10:03:36; Mem 7341.48MB
Epoch [0/100]; Iter [10/56500]; loss 4.9590; gen_loss 4.9590; LR 1.99e-06; Iter time 0.15s; ETA 2:16:34; Mem 7394.95MB
Epoch [0/100]; Iter [20/56500]; loss 4.9279; gen_loss 4.9279; LR 2.98e-06; Iter time 0.14s; ETA 2:14:55; Mem 7394.95MB
…
call with args: Namespace(base_lr=0.0001, final_lr=1e-06, weight_decay=0.1, clip_gradient=0.1, warm_lr=1e-06, warm_lr_iters=1000, pad_id=-1, dataset='shapenet_lamp', augment=False, n_discrete_size=128, n_max_triangles=800, model='mesh_xl', llm='mesh-xl/mesh-xl-125m', text_condition=None, image_condition=None, pretrained_weights=None, dataset_num_workers=1, batchsize_per_gpu=1, start_epoch=0, max_epoch=100, start_eval_after=-1, eval_every_iteration=4000, seed=0, train_from_scratch=True, test_only=False, sample_rounds=100, criterion=None, test_ckpt='', checkpoint_dir='./checkpoints', save_every=20000, log_every=10)
MeshXL(
  (tokenizer): MeshTokenizer()
  (transformer): OPTForCausalLM(
    (model): OPTModel(
      (decoder): OPTDecoder(
        (embed_tokens): Embedding(131, 768, padding_idx=130)
        (embed_positions): OPTLearnedPositionalEmbedding(2050, 768)
        (final_layer_norm): LayerNorm((768,), eps=1e-05, elementwise_affine=True)
        (layers): ModuleList(
          (0-11): 12 x OPTDecoderLayer(
            (self_attn): OPTAttention(
              (k_proj): Linear(in_features=768, out_features=768, bias=True)
              (v_proj): Linear(in_features=768, out_features=768, bias=True)
              (q_proj): Linear(in_features=768, out_features=768, bias=True)
              (out_proj): Linear(in_features=768, out_features=768, bias=True)
            )
            (activation_fn): ReLU()
            (self_attn_layer_norm): LayerNorm((768,), eps=1e-05, elementwise_affine=True)
            (fc1): Linear(in_features=768, out_features=3072, bias=True)
            (fc2): Linear(in_features=3072, out_features=768, bias=True)
            (final_layer_norm): LayerNorm((768,), eps=1e-05, elementwise_affine=True)
          )
        )
      )
    )
    (lm_head): Linear(in_features=768, out_features=131, bias=False)
  )
)
	[train]	transformer.model.decoder.embed_tokens.weight:	torch.Size([50272, 768])
	[train]	transformer.model.decoder.embed_positions.weight:	torch.Size([8194, 768])
	[train]	transformer.model.decoder.final_layer_norm.weight:	torch.Size([768])
	[train]	transformer.model.decoder.final_layer_norm.bias:	torch.Size([768])
	[train]	transformer.model.decoder.layers.0.self_attn.k_proj.weight:	torch.Size([768, 768])
…
call with args: Namespace(base_lr=1e-06, final_lr=1e-06, weight_decay=0.1, clip_gradient=0.1, warm_lr=1e-06, warm_lr_iters=-1, pad_id=-1, dataset='shapenet_lamp', augment=False, n_discrete_size=128, n_max_triangles=800, model='mesh_xl', llm='mesh-xl/mesh-xl-125m', text_condition=None, image_condition=None, pretrained_weights=None, dataset_num_workers=1, batchsize_per_gpu=1, start_epoch=0, max_epoch=1024, start_eval_after=-1, eval_every_iteration=10000, seed=0, train_from_scratch=True, test_only=False, sample_rounds=100, criterion=None, test_ckpt='', checkpoint_dir='./checkpoints', save_every=20000, log_every=10)
MeshXL(
  (tokenizer): MeshTokenizer()
  (transformer): OPTForCausalLM(
    (model): OPTModel(
      (decoder): OPTDecoder(
        (embed_tokens): Embedding(50272, 768, padding_idx=1)
        (embed_positions): OPTLearnedPositionalEmbedding(8194, 768)
        (final_layer_norm): LayerNorm((768,), eps=1e-05, elementwise_affine=True)
        (layers): ModuleList(
          (0-11): 12 x OPTDecoderLayer(
            (self_attn): OPTAttention(
              (k_proj): Linear(in_features=768, out_features=768, bias=True)
              (v_proj): Linear(in_features=768, out_features=768, bias=True)
              (q_proj): Linear(in_features=768, out_features=768, bias=True)
              (out_proj): Linear(in_features=768, out_features=768, bias=True)
            )
            (activation_fn): ReLU()
            (self_attn_layer_norm): LayerNorm((768,), eps=1e-05, elementwise_affine=True)
            (fc1): Linear(in_features=768, out_features=3072, bias=True)
            (fc2): Linear(in_features=3072, out_features=768, bias=True)
            (final_layer_norm): LayerNorm((768,), eps=1e-05, elementwise_affine=True)
          )
        )
      )
    )
    (lm_head): Linear(in_features=768, out_features=50272, bias=False)
  )
)
	[train]	transformer.model.decoder.embed_tokens.weight:	torch.Size([50272, 512])
	[train]	transformer.model.decoder.embed_positions.weight:	torch.Size([8194, 512])
	[train]	transformer.model.decoder.final_layer_norm.weight:	torch.Size([512])
	[train]	transformer.model.decoder.final_layer_norm.bias:	torch.Size([512])
	[train]	transformer.model.decoder.layers.0.self_attn.k_proj.weight:	torch.Size([512, 512])
…
call with args: Namespace(base_lr=1e-06, final_lr=1e-06, weight_decay=0.1, clip_gradient=0.1, warm_lr=1e-06, warm_lr_iters=-1, pad_id=-1, dataset='shapenet_lamp', augment=False, n_discrete_size=128, n_max_triangles=800, model='mesh_xl', llm='mesh-xl/mesh-xl-125m', text_condition=None, image_condition=None, pretrained_weights=None, dataset_num_workers=1, batchsize_per_gpu=1, start_epoch=0, max_epoch=1024, start_eval_after=-1, eval_every_iteration=10000, seed=0, train_from_scratch=True, test_only=False, sample_rounds=100, criterion=None, test_ckpt='', checkpoint_dir='./checkpoints', save_every=20000, log_every=10)
MeshXL(
  (tokenizer): MeshTokenizer()
  (transformer): OPTForCausalLM(
    (model): OPTModel(
      (decoder): OPTDecoder(
        (embed_tokens): Embedding(50272, 512, padding_idx=1)
        (embed_positions): OPTLearnedPositionalEmbedding(8194, 512)
        (final_layer_norm): LayerNorm((512,), eps=1e-05, elementwise_affine=True)
        (layers): ModuleList(
          (0-7): 8 x OPTDecoderLayer(
            (self_attn): OPTAttention(
              (k_proj): Linear(in_features=512, out_features=512, bias=True)
              (v_proj): Linear(in_features=512, out_features=512, bias=True)
              (q_proj): Linear(in_features=512, out_features=512, bias=True)
              (out_proj): Linear(in_features=512, out_features=512, bias=True)
            )
            (activation_fn): ReLU()
            (self_attn_layer_norm): LayerNorm((512,), eps=1e-05, elementwise_affine=True)
            (fc1): Linear(in_features=512, out_features=2048, bias=True)
            (fc2): Linear(in_features=2048, out_features=512, bias=True)
            (final_layer_norm): LayerNorm((512,), eps=1e-05, elementwise_affine=True)
          )
        )
      )
    )
    (lm_head): Linear(in_features=512, out_features=50272, bias=False)
  )
)
	[train]	transformer.model.decoder.embed_tokens.weight:	torch.Size([50272, 512])
	[train]	transformer.model.decoder.embed_positions.weight:	torch.Size([8194, 512])
	[train]	transformer.model.decoder.final_layer_norm.weight:	torch.Size([512])
	[train]	transformer.model.decoder.final_layer_norm.bias:	torch.Size([512])
	[train]	transformer.model.decoder.layers.0.self_attn.k_proj.weight:	torch.Size([512, 512])
…
