…
call with args: Namespace(base_lr=0.0001, final_lr=1e-06, weight_decay=0.1, clip_gradient=0.1, warm_lr=1e-06, warm_lr_iters=1000, pad_id=-1, dataset='objaverse', augment=False, n_discrete_size=128, n_max_triangles=800, model='mesh_xl', llm='mesh-xl/mesh-xl-125m', text_condition=None, image_condition=None, pretrained_weights=None, dataset_num_workers=1, batchsize_per_gpu=1, start_epoch=17, max_epoch=100, start_eval_after=-1, eval_every_iteration=4000, seed=0, test_only=False, sample_rounds=100, criterion=None, test_ckpt='', checkpoint_dir='./checkpoints', save_every=20000, log_every=10)
MeshXL(
  (tokenizer): MeshTokenizer()
  (transformer): OPTForCausalLM(
    (model): OPTModel(
      (decoder): OPTDecoder(
        (embed_tokens): Embedding(131, 256, padding_idx=130)
        (embed_positions): OPTLearnedPositionalEmbedding(8194, 256)
        (final_layer_norm): LayerNorm((256,), eps=1e-05, elementwise_affine=True)
        (layers): ModuleList(
          (0-7): 8 x OPTDecoderLayer(
            (self_attn): OPTAttention(
              (k_proj): Linear(in_features=256, out_features=256, bias=True)
              (v_proj): Linear(in_features=256, out_features=256, bias=True)
              (q_proj): Linear(in_features=256, out_features=256, bias=True)
              (out_proj): Linear(in_features=256, out_features=256, bias=True)
            )
            (activation_fn): ReLU()
            (self_attn_layer_norm): LayerNorm((256,), eps=1e-05, elementwise_affine=True)
            (fc1): Linear(in_features=256, out_features=3072, bias=True)
            (fc2): Linear(in_features=3072, out_features=256, bias=True)
            (final_layer_norm): LayerNorm((256,), eps=1e-05, elementwise_affine=True)
          )
        )
      )
    )
    (lm_head): Linear(in_features=256, out_features=131, bias=False)
  )
)
Epoch [17/100]; Iter [8760/51500]; loss 1.6791; gen_loss 1.6791; LR 9.31e-05; Iter time 0.40s; ETA 4:44:59; Mem 18775.83MB
Epoch [17/100]; Iter [8770/51500]; loss 1.6337; gen_loss 1.6337; LR 9.31e-05; Iter time 0.36s; ETA 4:19:12; Mem 18775.83MB
Epoch [17/100]; Iter [8780/51500]; loss 1.3703; gen_loss 1.3703; LR 9.31e-05; Iter time 0.36s; ETA 4:19:35; Mem 18775.83MB
…
