…
call with args: Namespace(base_lr=0.0001, final_lr=1e-06, weight_decay=0.1, clip_gradient=0.1, warm_lr=1e-06, warm_lr_iters=1000, pad_id=-1, dataset='objaverse', augment=False, n_discrete_size=128, n_max_triangles=800, model='mesh_xl', llm='mesh-xl/mesh-xl-125m', text_condition=None, image_condition=None, pretrained_weights=None, dataset_num_workers=0, batchsize_per_gpu=4, start_epoch=0, max_epoch=16, start_eval_after=-1, eval_every_iteration=4000, seed=0, test_only=False, sample_rounds=100, criterion=None, test_ckpt='', checkpoint_dir='./checkpoints', save_every=20000, log_every=10)
MeshXL(
  (tokenizer): MeshTokenizer()
  (transformer): OPTForCausalLM(
    (model): OPTModel(
      (decoder): OPTDecoder(
        (embed_tokens): Embedding(131, 768, padding_idx=130)
        (embed_positions): OPTLearnedPositionalEmbedding(8194, 768)
        (final_layer_norm): LayerNorm((768,), eps=1e-05, elementwise_affine=True)
        (layers): ModuleList(
          (0-11): 12 x OPTDecoderLayer(
            (self_attn): OPTAttentionLayerBetterTransformer(
              (k_proj): Linear(in_features=768, out_features=768, bias=True)
              (v_proj): Linear(in_features=768, out_features=768, bias=True)
              (q_proj): Linear(in_features=768, out_features=768, bias=True)
              (out_proj): Linear(in_features=768, out_features=768, bias=True)
            )
            (activation_fn): ReLU()
            (self_attn_layer_norm): LayerNorm((768,), eps=1e-05, elementwise_affine=True)
            (fc1): Linear(in_features=768, out_features=3072, bias=True)
            (fc2): Linear(in_features=3072, out_features=768, bias=True)
            (final_layer_norm): LayerNorm((768,), eps=1e-05, elementwise_affine=True)
          )
        )
      )
    )
    (lm_head): Linear(in_features=768, out_features=131, bias=False)
  )
)
<accelerate.data_loader.DataLoaderShard object at 0x7fb614327280>
<trimesh.Trimesh(vertices.shape=(48, 3), faces.shape=(24, 3))>
<trimesh.Trimesh(vertices.shape=(607, 3), faces.shape=(778, 3))>
<trimesh.Trimesh(vertices.shape=(84, 3), faces.shape=(46, 3))>
<trimesh.Trimesh(vertices.shape=(1470, 3), faces.shape=(798, 3))>
<trimesh.Trimesh(vertices.shape=(768, 3), faces.shape=(384, 3))>
…
